Selected network (train.py) = bimodal
bimodal selected
Training seq
DEVICE = cpu
####################
Total Parameters = 605185
Total Trainable Parameters = 605185
bichrom_seq(
  (conv1d): Conv1d(4, 256, kernel_size=(24,), stride=(1,))
  (relu): ReLU()
  (batchNorm1d): BatchNorm1d(256, eps=1e-05, momentum=0.1, affine=True, track_running_stats=True)
  (maxPool1d): MaxPool1d(kernel_size=15, stride=15, padding=0, dilation=1, ceil_mode=True)
  (lstm): LSTM(256, 32, batch_first=True)
  (tanh): Tanh()
  (model_dense_repeat): Sequential(
    (0): Linear(in_features=32, out_features=512, bias=True)
    (1): ReLU()
    (2): Dropout(p=0.5, inplace=False)
    (3): Linear(in_features=512, out_features=512, bias=True)
    (4): ReLU()
    (5): Dropout(p=0.5, inplace=False)
    (6): Linear(in_features=512, out_features=512, bias=True)
    (7): ReLU()
    (8): Dropout(p=0.5, inplace=False)
  )
  (linear): Linear(in_features=512, out_features=1, bias=True)
  (sigmoid): Sigmoid()
)
####################
Epochs = 30
EPOCH 1:
  batch 1 loss: 0.6918201446533203
  batch 2 loss: 0.6927967071533203
  batch 3 loss: 0.6929927468299866
  batch 4 loss: 0.6924695074558258
  batch 5 loss: 0.6938172101974487
  batch 6 loss: 0.6943941116333008
  batch 7 loss: 0.6943299004009792
  batch 8 loss: 0.6943481117486954
  batch 9 loss: 0.6942797700564066
…
LOSS train 0.22409523344772347 valid 0.20203965208724717
LOSS train 0.22409523344772347 valid 0.20208284191109918
LOSS train 0.22409523344772347 valid 0.20197663274030764
LOSS train 0.22409523344772347 valid 0.2020818129590113
LOSS train 0.22409523344772347 valid 0.20207677274698116
LOSS train 0.22409523344772347 valid 0.201989817623384
LOSS train 0.22409523344772347 valid 0.20189293556968155
LOSS train 0.22409523344772347 valid 0.20186972688772492
Training bichrom
DEVICE = cpu
####################
Total Parameters = 606342
Total Trainable Parameters = 1157
bimodal_network(
  (base_model): bichrom_seq(
    (conv1d): Conv1d(4, 256, kernel_size=(24,), stride=(1,))
    (relu): ReLU()
    (batchNorm1d): BatchNorm1d(256, eps=1e-05, momentum=0.1, affine=True, track_running_stats=True)
    (maxPool1d): MaxPool1d(kernel_size=15, stride=15, padding=0, dilation=1, ceil_mode=True)
    (lstm): LSTM(256, 32, batch_first=True)
    (tanh): Tanh()
    (model_dense_repeat): Sequential(
      (0): Linear(in_features=32, out_features=512, bias=True)
      (1): ReLU()
      (2): Dropout(p=0.5, inplace=False)
      (3): Linear(in_features=512, out_features=512, bias=True)
      (4): ReLU()
      (5): Dropout(p=0.5, inplace=False)
      (6): Linear(in_features=512, out_features=512, bias=True)
      (7): ReLU()
      (8): Dropout(p=0.5, inplace=False)
    )
    (linear): Linear(in_features=512, out_features=1, bias=True)
    (sigmoid): Sigmoid()
  )
  (linear): Linear(in_features=512, out_features=1, bias=True)
  (tanh): Tanh()
  (model): bichrom_chrom(
    (_reshape): _reshape()
    (conv1d): Conv1d(12, 15, kernel_size=(1,), stride=(1,), padding=valid)
    (relu): ReLU()
    (lstm): LSTM(15, 5, batch_first=True)
    (relu2): ReLU()
    (linear): Linear(in_features=5, out_features=1, bias=True)
    (tanh): Tanh()
  )
  (linear2): Linear(in_features=2, out_features=1, bias=True)
  (sigmoid): Sigmoid()
)
base_model.conv1d.weight False
base_model.conv1d.bias False
base_model.batchNorm1d.weight False
base_model.batchNorm1d.bias False
base_model.lstm.weight_ih_l0 False
base_model.lstm.weight_hh_l0 False
base_model.lstm.bias_ih_l0 False
base_model.lstm.bias_hh_l0 False
base_model.model_dense_repeat.0.weight False
base_model.model_dense_repeat.0.bias False
…
