…
 - EPOCH 15: LOSS train 0.13255752195304227 valid 0.20190312446559427CHROM - EPOCH 15: LOSS train 0.13255752195304227 valid 0.20170875440177682CHROM - EPOCH 15: LOSS train 0.13255752195304227 valid 0.20173444888771397CHROM - EPOCH 15: LOSS train 0.13255752195304227 valid 0.2017507003671159CHROM - EPOCH 15: LOSS train 0.13255752195304227 valid 0.20181918994850945CHROM - EPOCH 15: LOSS train 0.13255752195304227 valid 0.2017407462446262CHROM - EPOCH 15: LOSS train 0.13255752195304227 valid 0.2018483633069488Selected network (scan_genome.py) = bimodal
bimodal selected
bichrom_seq(
  (conv1d): Conv1d(4, 256, kernel_size=(24,), stride=(1,))
  (relu): ReLU()
  (batchNorm1d): BatchNorm1d(256, eps=1e-05, momentum=0.1, affine=True, track_running_stats=True)
  (maxPool1d): MaxPool1d(kernel_size=15, stride=15, padding=0, dilation=1, ceil_mode=True)
  (lstm): LSTM(256, 32, batch_first=True)
  (tanh): Tanh()
  (model_dense_repeat): Sequential(
    (0): Linear(in_features=32, out_features=512, bias=True)
    (1): ReLU()
    (2): Dropout(p=0.5, inplace=False)
    (3): Linear(in_features=512, out_features=512, bias=True)
    (4): ReLU()
    (5): Dropout(p=0.5, inplace=False)
    (6): Linear(in_features=512, out_features=512, bias=True)
    (7): ReLU()
    (8): Dropout(p=0.5, inplace=False)
  )
  (linear): Linear(in_features=512, out_features=1, bias=True)
  (sigmoid): Sigmoid()
)
bimodal_network(
  (base_model): bichrom_seq(
    (conv1d): Conv1d(4, 256, kernel_size=(24,), stride=(1,))
    (relu): ReLU()
    (batchNorm1d): BatchNorm1d(256, eps=1e-05, momentum=0.1, affine=True, track_running_stats=True)
    (maxPool1d): MaxPool1d(kernel_size=15, stride=15, padding=0, dilation=1, ceil_mode=True)
    (lstm): LSTM(256, 32, batch_first=True)
    (tanh): Tanh()
    (model_dense_repeat): Sequential(
      (0): Linear(in_features=32, out_features=512, bias=True)
      (1): ReLU()
      (2): Dropout(p=0.5, inplace=False)
      (3): Linear(in_features=512, out_features=512, bias=True)
      (4): ReLU()
      (5): Dropout(p=0.5, inplace=False)
      (6): Linear(in_features=512, out_features=512, bias=True)
      (7): ReLU()
      (8): Dropout(p=0.5, inplace=False)
    )
    (linear): Linear(in_features=512, out_features=1, bias=True)
    (sigmoid): Sigmoid()
  )
  (linear): Linear(in_features=512, out_features=1, bias=True)
  (tanh): Tanh()
  (model): bichrom_chrom(
    (_reshape): _reshape()
    (conv1d): Conv1d(12, 15, kernel_size=(1,), stride=(1,), padding=valid)
    (relu): ReLU()
    (lstm): LSTM(15, 5, batch_first=True)
    (relu2): ReLU()
    (linear): Linear(in_features=5, out_features=1, bias=True)
    (tanh): Tanh()
  )
  (linear2): Linear(in_features=2, out_features=1, bias=True)
  (sigmoid): Sigmoid()
)
0.4269102990033223
0.6370431893687708
Elapsed: 6hrs 32min 23sec
