Training seq
DEVICE = cpu
####################
Total Parameters = 605185
Total Trainable Parameters = 605185
bichrom_seq(
  (conv1d): Conv1d(4, 256, kernel_size=(24,), stride=(1,))
  (relu): ReLU()
  (batchNorm1d): BatchNorm1d(256, eps=1e-05, momentum=0.1, affine=True, track_running_stats=True)
  (maxPool1d): MaxPool1d(kernel_size=15, stride=15, padding=0, dilation=1, ceil_mode=True)
  (lstm): LSTM(256, 32, batch_first=True)
  (tanh): Tanh()
  (model_dense_repeat): Sequential(
    (0): Linear(in_features=32, out_features=512, bias=True)
    (1): ReLU()
    (2): Dropout(p=0.5, inplace=False)
    (3): Linear(in_features=512, out_features=512, bias=True)
    (4): ReLU()
    (5): Dropout(p=0.5, inplace=False)
    (6): Linear(in_features=512, out_features=512, bias=True)
    (7): ReLU()
    (8): Dropout(p=0.5, inplace=False)
  )
  (linear): Linear(in_features=512, out_features=1, bias=True)
  (sigmoid): Sigmoid()
)
####################
EPOCH 1:
  batch 1 loss: 0.6931483745574951
  batch 2 loss: 0.694069504737854
  batch 3 loss: 0.6947539250055949
  batch 4 loss: 0.6947050541639328
  batch 5 loss: 0.6941787481307984
  batch 6 loss: 0.6939417918523153
  batch 7 loss: 0.6938325847898211
  batch 8 loss: 0.6938738971948624
  batch 9 loss: 0.6934881342781914
…
LOSS train 0.3499430159769826 valid 0.2596205046081411
LOSS train 0.3499430159769826 valid 0.2594473045062756
LOSS train 0.3499430159769826 valid 0.2594613853719208
LOSS train 0.3499430159769826 valid 0.2595082590841267
LOSS train 0.3499430159769826 valid 0.259478513171764
LOSS train 0.3499430159769826 valid 0.25937816874207853
LOSS train 0.3499430159769826 valid 0.25930652257217013
LOSS train 0.3499430159769826 valid 0.2594060441504326
Training bichrom
DEVICE = cpu
####################
Total Parameters = 606342
Total Trainable Parameters = 1157
bimodal_network(
  (base_model): bichrom_seq(
    (conv1d): Conv1d(4, 256, kernel_size=(24,), stride=(1,))
    (relu): ReLU()
    (batchNorm1d): BatchNorm1d(256, eps=1e-05, momentum=0.1, affine=True, track_running_stats=True)
    (maxPool1d): MaxPool1d(kernel_size=15, stride=15, padding=0, dilation=1, ceil_mode=True)
    (lstm): LSTM(256, 32, batch_first=True)
    (tanh): Tanh()
    (model_dense_repeat): Sequential(
      (0): Linear(in_features=32, out_features=512, bias=True)
      (1): ReLU()
      (2): Dropout(p=0.5, inplace=False)
      (3): Linear(in_features=512, out_features=512, bias=True)
      (4): ReLU()
      (5): Dropout(p=0.5, inplace=False)
      (6): Linear(in_features=512, out_features=512, bias=True)
      (7): ReLU()
      (8): Dropout(p=0.5, inplace=False)
    )
    (linear): Linear(in_features=512, out_features=1, bias=True)
    (sigmoid): Sigmoid()
  )
  (linear): Linear(in_features=512, out_features=1, bias=True)
  (tanh): Tanh()
  (model): bichrom_chrom(
    (_reshape): _reshape()
    (conv1d): Conv1d(12, 15, kernel_size=(1,), stride=(1,), padding=valid)
    (relu): ReLU()
    (lstm): LSTM(15, 5, batch_first=True)
    (relu2): ReLU()
    (linear): Linear(in_features=5, out_features=1, bias=True)
    (tanh): Tanh()
  )
  (linear2): Linear(in_features=2, out_features=1, bias=True)
  (sigmoid): Sigmoid()
)
base_model.conv1d.weight False
base_model.conv1d.bias False
base_model.batchNorm1d.weight False
base_model.batchNorm1d.bias False
base_model.lstm.weight_ih_l0 False
base_model.lstm.weight_hh_l0 False
base_model.lstm.bias_ih_l0 False
base_model.lstm.bias_hh_l0 False
base_model.model_dense_repeat.0.weight False
base_model.model_dense_repeat.0.bias False
…
LOSS train 0.2765942295792244 valid 0.32307212556969156
LOSS train 0.2765942295792244 valid 0.3230855809317695
LOSS train 0.2765942295792244 valid 0.32307279118210325
LOSS train 0.2765942295792244 valid 0.3231669064220144
LOSS train 0.2765942295792244 valid 0.3229926977275817
LOSS train 0.2765942295792244 valid 0.32303077359120924
LOSS train 0.2765942295792244 valid 0.3231012283122703
LOSS train 0.2765942295792244 valid 0.32305116845610365
LOSS train 0.2765942295792244 valid 0.32292415782281425
LOSS train 0.2765942295792244 valid 0.3228580073008071
LOSS train 0.2765942295792244 valid 0.3229839788058263
bichrom_seq(
  (conv1d): Conv1d(4, 256, kernel_size=(24,), stride=(1,))
  (relu): ReLU()
  (batchNorm1d): BatchNorm1d(256, eps=1e-05, momentum=0.1, affine=True, track_running_stats=True)
  (maxPool1d): MaxPool1d(kernel_size=15, stride=15, padding=0, dilation=1, ceil_mode=True)
  (lstm): LSTM(256, 32, batch_first=True)
  (tanh): Tanh()
  (model_dense_repeat): Sequential(
    (0): Linear(in_features=32, out_features=512, bias=True)
    (1): ReLU()
    (2): Dropout(p=0.5, inplace=False)
    (3): Linear(in_features=512, out_features=512, bias=True)
    (4): ReLU()
    (5): Dropout(p=0.5, inplace=False)
    (6): Linear(in_features=512, out_features=512, bias=True)
    (7): ReLU()
    (8): Dropout(p=0.5, inplace=False)
  )
  (linear): Linear(in_features=512, out_features=1, bias=True)
  (sigmoid): Sigmoid()
)
bimodal_network(
  (base_model): bichrom_seq(
    (conv1d): Conv1d(4, 256, kernel_size=(24,), stride=(1,))
    (relu): ReLU()
    (batchNorm1d): BatchNorm1d(256, eps=1e-05, momentum=0.1, affine=True, track_running_stats=True)
    (maxPool1d): MaxPool1d(kernel_size=15, stride=15, padding=0, dilation=1, ceil_mode=True)
    (lstm): LSTM(256, 32, batch_first=True)
    (tanh): Tanh()
    (model_dense_repeat): Sequential(
      (0): Linear(in_features=32, out_features=512, bias=True)
      (1): ReLU()
      (2): Dropout(p=0.5, inplace=False)
      (3): Linear(in_features=512, out_features=512, bias=True)
      (4): ReLU()
      (5): Dropout(p=0.5, inplace=False)
      (6): Linear(in_features=512, out_features=512, bias=True)
      (7): ReLU()
      (8): Dropout(p=0.5, inplace=False)
    )
    (linear): Linear(in_features=512, out_features=1, bias=True)
    (sigmoid): Sigmoid()
  )
  (linear): Linear(in_features=512, out_features=1, bias=True)
  (tanh): Tanh()
  (model): bichrom_chrom(
    (_reshape): _reshape()
    (conv1d): Conv1d(12, 15, kernel_size=(1,), stride=(1,), padding=valid)
    (relu): ReLU()
    (lstm): LSTM(15, 5, batch_first=True)
    (relu2): ReLU()
    (linear): Linear(in_features=5, out_features=1, bias=True)
    (tanh): Tanh()
  )
  (linear2): Linear(in_features=2, out_features=1, bias=True)
  (sigmoid): Sigmoid()
)
0.40863787375415284
0.40863787375415284
