Training seq
DEVICE = cpu
####################
Total Parameters = 605185
Total Trainable Parameters = 605185
bichrom_seq(
  (conv1d): Conv1d(4, 256, kernel_size=(24,), stride=(1,))
  (relu): ReLU()
  (batchNorm1d): BatchNorm1d(256, eps=1e-05, momentum=0.1, affine=True, track_running_stats=True)
  (maxPool1d): MaxPool1d(kernel_size=15, stride=15, padding=0, dilation=1, ceil_mode=True)
  (lstm): LSTM(256, 32, batch_first=True)
  (tanh): Tanh()
  (model_dense_repeat): Sequential(
    (0): Linear(in_features=32, out_features=512, bias=True)
    (1): ReLU()
    (2): Dropout(p=0.5, inplace=False)
    (3): Linear(in_features=512, out_features=512, bias=True)
    (4): ReLU()
    (5): Dropout(p=0.5, inplace=False)
    (6): Linear(in_features=512, out_features=512, bias=True)
    (7): ReLU()
    (8): Dropout(p=0.5, inplace=False)
  )
  (linear): Linear(in_features=512, out_features=1, bias=True)
  (sigmoid): Sigmoid()
)
####################
EPOCH 1:
  batch 1 loss: 0.6947129964828491
  batch 2 loss: 0.6935129761695862
  batch 3 loss: 0.6945641040802002
  batch 4 loss: 0.6942316144704819
  batch 5 loss: 0.6943819761276245
  batch 6 loss: 0.6943146884441376
  batch 7 loss: 0.6943596686635699
  batch 8 loss: 0.6944925859570503
  batch 9 loss: 0.6944864392280579
…
LOSS train 0.2085434349916749 valid 0.2747621004835018
LOSS train 0.2085434349916749 valid 0.27459801868958905
LOSS train 0.2085434349916749 valid 0.2746136996608514
LOSS train 0.2085434349916749 valid 0.2747081083794163
LOSS train 0.2085434349916749 valid 0.2746252212368074
LOSS train 0.2085434349916749 valid 0.27447785985242446
LOSS train 0.2085434349916749 valid 0.27455456935517164
LOSS train 0.2085434349916749 valid 0.2747019014061305
Training bichrom
DEVICE = cpu
####################
Total Parameters = 606342
Total Trainable Parameters = 1157
bimodal_network(
  (base_model): bichrom_seq(
    (conv1d): Conv1d(4, 256, kernel_size=(24,), stride=(1,))
    (relu): ReLU()
    (batchNorm1d): BatchNorm1d(256, eps=1e-05, momentum=0.1, affine=True, track_running_stats=True)
    (maxPool1d): MaxPool1d(kernel_size=15, stride=15, padding=0, dilation=1, ceil_mode=True)
    (lstm): LSTM(256, 32, batch_first=True)
    (tanh): Tanh()
    (model_dense_repeat): Sequential(
      (0): Linear(in_features=32, out_features=512, bias=True)
      (1): ReLU()
      (2): Dropout(p=0.5, inplace=False)
      (3): Linear(in_features=512, out_features=512, bias=True)
      (4): ReLU()
      (5): Dropout(p=0.5, inplace=False)
      (6): Linear(in_features=512, out_features=512, bias=True)
      (7): ReLU()
      (8): Dropout(p=0.5, inplace=False)
    )
    (linear): Linear(in_features=512, out_features=1, bias=True)
    (sigmoid): Sigmoid()
  )
  (linear): Linear(in_features=512, out_features=1, bias=True)
  (tanh): Tanh()
  (model): bichrom_chrom(
    (_reshape): _reshape()
    (conv1d): Conv1d(12, 15, kernel_size=(1,), stride=(1,), padding=valid)
    (relu): ReLU()
    (lstm): LSTM(15, 5, batch_first=True)
    (relu2): ReLU()
    (linear): Linear(in_features=5, out_features=1, bias=True)
    (tanh): Tanh()
  )
  (linear2): Linear(in_features=2, out_features=1, bias=True)
  (sigmoid): Sigmoid()
)
base_model.conv1d.weight False
base_model.conv1d.bias False
base_model.batchNorm1d.weight False
base_model.batchNorm1d.bias False
base_model.lstm.weight_ih_l0 False
base_model.lstm.weight_hh_l0 False
base_model.lstm.bias_ih_l0 False
base_model.lstm.bias_hh_l0 False
base_model.model_dense_repeat.0.weight False
base_model.model_dense_repeat.0.bias False
…
LOSS train 0.12834943630495818 valid 0.17807498063715718
LOSS train 0.12834943630495818 valid 0.17803555801510812
LOSS train 0.12834943630495818 valid 0.17798285450466453
LOSS train 0.12834943630495818 valid 0.17803332205470754
LOSS train 0.12834943630495818 valid 0.17802455709328666
LOSS train 0.12834943630495818 valid 0.17802157248933237
LOSS train 0.12834943630495818 valid 0.17807321144293434
LOSS train 0.12834943630495818 valid 0.17809921234357554
LOSS train 0.12834943630495818 valid 0.17801489175502871
LOSS train 0.12834943630495818 valid 0.17805924384004396
LOSS train 0.12834943630495818 valid 0.17813818568621226
bichrom_seq(
  (conv1d): Conv1d(4, 256, kernel_size=(24,), stride=(1,))
  (relu): ReLU()
  (batchNorm1d): BatchNorm1d(256, eps=1e-05, momentum=0.1, affine=True, track_running_stats=True)
  (maxPool1d): MaxPool1d(kernel_size=15, stride=15, padding=0, dilation=1, ceil_mode=True)
  (lstm): LSTM(256, 32, batch_first=True)
  (tanh): Tanh()
  (model_dense_repeat): Sequential(
    (0): Linear(in_features=32, out_features=512, bias=True)
    (1): ReLU()
    (2): Dropout(p=0.5, inplace=False)
    (3): Linear(in_features=512, out_features=512, bias=True)
    (4): ReLU()
    (5): Dropout(p=0.5, inplace=False)
    (6): Linear(in_features=512, out_features=512, bias=True)
    (7): ReLU()
    (8): Dropout(p=0.5, inplace=False)
  )
  (linear): Linear(in_features=512, out_features=1, bias=True)
  (sigmoid): Sigmoid()
)
bimodal_network(
  (base_model): bichrom_seq(
    (conv1d): Conv1d(4, 256, kernel_size=(24,), stride=(1,))
    (relu): ReLU()
    (batchNorm1d): BatchNorm1d(256, eps=1e-05, momentum=0.1, affine=True, track_running_stats=True)
    (maxPool1d): MaxPool1d(kernel_size=15, stride=15, padding=0, dilation=1, ceil_mode=True)
    (lstm): LSTM(256, 32, batch_first=True)
    (tanh): Tanh()
    (model_dense_repeat): Sequential(
      (0): Linear(in_features=32, out_features=512, bias=True)
      (1): ReLU()
      (2): Dropout(p=0.5, inplace=False)
      (3): Linear(in_features=512, out_features=512, bias=True)
      (4): ReLU()
      (5): Dropout(p=0.5, inplace=False)
      (6): Linear(in_features=512, out_features=512, bias=True)
      (7): ReLU()
      (8): Dropout(p=0.5, inplace=False)
    )
    (linear): Linear(in_features=512, out_features=1, bias=True)
    (sigmoid): Sigmoid()
  )
  (linear): Linear(in_features=512, out_features=1, bias=True)
  (tanh): Tanh()
  (model): bichrom_chrom(
    (_reshape): _reshape()
    (conv1d): Conv1d(12, 15, kernel_size=(1,), stride=(1,), padding=valid)
    (relu): ReLU()
    (lstm): LSTM(15, 5, batch_first=True)
    (relu2): ReLU()
    (linear): Linear(in_features=5, out_features=1, bias=True)
    (tanh): Tanh()
  )
  (linear2): Linear(in_features=2, out_features=1, bias=True)
  (sigmoid): Sigmoid()
)
0.4908637873754153
0.6993355481727574
Elapsed: 13hrs 34min 16sec
