Selected network (train.py) = bimodal
bimodal selected
Training seq
DEVICE = cpu
####################
Total Parameters = 605185
Total Trainable Parameters = 605185
bichrom_seq(
  (conv1d): Conv1d(4, 256, kernel_size=(24,), stride=(1,))
  (relu): ReLU()
  (batchNorm1d): BatchNorm1d(256, eps=1e-05, momentum=0.1, affine=True, track_running_stats=True)
  (maxPool1d): MaxPool1d(kernel_size=15, stride=15, padding=0, dilation=1, ceil_mode=True)
  (lstm): LSTM(256, 32, batch_first=True)
  (tanh): Tanh()
  (model_dense_repeat): Sequential(
    (0): Linear(in_features=32, out_features=512, bias=True)
    (1): ReLU()
    (2): Dropout(p=0.5, inplace=False)
    (3): Linear(in_features=512, out_features=512, bias=True)
    (4): ReLU()
    (5): Dropout(p=0.5, inplace=False)
    (6): Linear(in_features=512, out_features=512, bias=True)
    (7): ReLU()
    (8): Dropout(p=0.5, inplace=False)
  )
  (linear): Linear(in_features=512, out_features=1, bias=True)
  (sigmoid): Sigmoid()
)
####################
Epochs = 15
EPOCH 1:
  batch 1 loss: 0.6936571598052979
  batch 2 loss: 0.6932485699653625
  batch 3 loss: 0.6935972372690836
  batch 4 loss: 0.6933631002902985
  batch 5 loss: 0.6938181757926941
  batch 6 loss: 0.6941258410612742
  batch 7 loss: 0.6941588691302708
  batch 8 loss: 0.6942578107118607
  batch 9 loss: 0.6943691770235697
…
LOSS train 0.24138444696821398 valid 0.21672193603127043
LOSS train 0.24138444696821398 valid 0.21674909633545836
LOSS train 0.24138444696821398 valid 0.21660079442701496
LOSS train 0.24138444696821398 valid 0.21671145113363657
LOSS train 0.24138444696821398 valid 0.2167436899057503
LOSS train 0.24138444696821398 valid 0.21672515161030947
LOSS train 0.24138444696821398 valid 0.21663048365355833
LOSS train 0.24138444696821398 valid 0.21667116965220226
Training bichrom
DEVICE = cpu
####################
Total Parameters = 606342
Total Trainable Parameters = 1157
bimodal_network(
  (base_model): bichrom_seq(
    (conv1d): Conv1d(4, 256, kernel_size=(24,), stride=(1,))
    (relu): ReLU()
    (batchNorm1d): BatchNorm1d(256, eps=1e-05, momentum=0.1, affine=True, track_running_stats=True)
    (maxPool1d): MaxPool1d(kernel_size=15, stride=15, padding=0, dilation=1, ceil_mode=True)
    (lstm): LSTM(256, 32, batch_first=True)
    (tanh): Tanh()
    (model_dense_repeat): Sequential(
      (0): Linear(in_features=32, out_features=512, bias=True)
      (1): ReLU()
      (2): Dropout(p=0.5, inplace=False)
      (3): Linear(in_features=512, out_features=512, bias=True)
      (4): ReLU()
      (5): Dropout(p=0.5, inplace=False)
      (6): Linear(in_features=512, out_features=512, bias=True)
      (7): ReLU()
      (8): Dropout(p=0.5, inplace=False)
    )
    (linear): Linear(in_features=512, out_features=1, bias=True)
    (sigmoid): Sigmoid()
  )
  (linear): Linear(in_features=512, out_features=1, bias=True)
  (tanh): Tanh()
  (model): bichrom_chrom(
    (_reshape): _reshape()
    (conv1d): Conv1d(12, 15, kernel_size=(1,), stride=(1,), padding=valid)
    (relu): ReLU()
    (lstm): LSTM(15, 5, batch_first=True)
    (relu2): ReLU()
    (linear): Linear(in_features=5, out_features=1, bias=True)
    (tanh): Tanh()
  )
  (linear2): Linear(in_features=2, out_features=1, bias=True)
  (sigmoid): Sigmoid()
)
base_model.conv1d.weight False
base_model.conv1d.bias False
base_model.batchNorm1d.weight False
base_model.batchNorm1d.bias False
base_model.lstm.weight_ih_l0 False
base_model.lstm.weight_hh_l0 False
base_model.lstm.bias_ih_l0 False
base_model.lstm.bias_hh_l0 False
base_model.model_dense_repeat.0.weight False
base_model.model_dense_repeat.0.bias False
…
LOSS train 0.14007956244177738 valid 0.21123121813353565
LOSS train 0.14007956244177738 valid 0.2111835604600629
LOSS train 0.14007956244177738 valid 0.21134578558045197
LOSS train 0.14007956244177738 valid 0.2113631003364387
LOSS train 0.14007956244177738 valid 0.21125949430023575
LOSS train 0.14007956244177738 valid 0.21127853203717975
LOSS train 0.14007956244177738 valid 0.21127653229839163
LOSS train 0.14007956244177738 valid 0.21131775576915662
LOSS train 0.14007956244177738 valid 0.21117183685545687
LOSS train 0.14007956244177738 valid 0.2112819724249323
Selected network (scan_genome.py) = bimodal
bimodal selected
bichrom_seq(
  (conv1d): Conv1d(4, 256, kernel_size=(24,), stride=(1,))
  (relu): ReLU()
  (batchNorm1d): BatchNorm1d(256, eps=1e-05, momentum=0.1, affine=True, track_running_stats=True)
  (maxPool1d): MaxPool1d(kernel_size=15, stride=15, padding=0, dilation=1, ceil_mode=True)
  (lstm): LSTM(256, 32, batch_first=True)
  (tanh): Tanh()
  (model_dense_repeat): Sequential(
    (0): Linear(in_features=32, out_features=512, bias=True)
    (1): ReLU()
    (2): Dropout(p=0.5, inplace=False)
    (3): Linear(in_features=512, out_features=512, bias=True)
    (4): ReLU()
    (5): Dropout(p=0.5, inplace=False)
    (6): Linear(in_features=512, out_features=512, bias=True)
    (7): ReLU()
    (8): Dropout(p=0.5, inplace=False)
  )
  (linear): Linear(in_features=512, out_features=1, bias=True)
  (sigmoid): Sigmoid()
)
bimodal_network(
  (base_model): bichrom_seq(
    (conv1d): Conv1d(4, 256, kernel_size=(24,), stride=(1,))
    (relu): ReLU()
    (batchNorm1d): BatchNorm1d(256, eps=1e-05, momentum=0.1, affine=True, track_running_stats=True)
    (maxPool1d): MaxPool1d(kernel_size=15, stride=15, padding=0, dilation=1, ceil_mode=True)
    (lstm): LSTM(256, 32, batch_first=True)
    (tanh): Tanh()
    (model_dense_repeat): Sequential(
      (0): Linear(in_features=32, out_features=512, bias=True)
      (1): ReLU()
      (2): Dropout(p=0.5, inplace=False)
      (3): Linear(in_features=512, out_features=512, bias=True)
      (4): ReLU()
      (5): Dropout(p=0.5, inplace=False)
      (6): Linear(in_features=512, out_features=512, bias=True)
      (7): ReLU()
      (8): Dropout(p=0.5, inplace=False)
    )
    (linear): Linear(in_features=512, out_features=1, bias=True)
    (sigmoid): Sigmoid()
  )
  (linear): Linear(in_features=512, out_features=1, bias=True)
  (tanh): Tanh()
  (model): bichrom_chrom(
    (_reshape): _reshape()
    (conv1d): Conv1d(12, 15, kernel_size=(1,), stride=(1,), padding=valid)
    (relu): ReLU()
    (lstm): LSTM(15, 5, batch_first=True)
    (relu2): ReLU()
    (linear): Linear(in_features=5, out_features=1, bias=True)
    (tanh): Tanh()
  )
  (linear2): Linear(in_features=2, out_features=1, bias=True)
  (sigmoid): Sigmoid()
)
0.4061461794019934
0.6727574750830565
Elapsed: 6hrs 18min 12sec
